…
e(2, activation='softmax')(dense)\n","\n","model_01 = Model(inputs=[input_data], outputs=[out])\n","\n","print(model_01.summary())"],"execution_count":null,"outputs":[{"output_type":"stream","text":["Model: \"model\"\n","_________________________________________________________________\n","Layer (type)                 Output Shape              Param #   \n","=================================================================\n","main_input (InputLayer)      [(None, 140)]             0         \n","_________________________________________________________________\n","embedding (Embedding)        (None, 140, 200)          2803400   \n","_________________________________________________________________\n","conv1d (Conv1D)              (None, 137, 50)           40050     \n","_________________________________________________________________\n","max_pooling1d (MaxPooling1D) (None, 68, 50)            0         \n","_________________________________________________________________\n","conv1d_1 (Conv1D)            (None, 66, 100)           15100     \n","_________________________________________________________________\n","max_pooling1d_1 (MaxPooling1 (None, 33, 100)           0         \n","_________________________________________________________________\n","flatten (Flatten)            (None, 3300)              0         \n","_________________________________________________________________\n","fully_connected (Dense)      (None, 100)               330100    \n","_________________________________________________________________\n","dense (Dense)                (None, 2)                 202       \n","=================================================================\n","Total params: 3,188,852\n","Trainable params: 385,452\n","Non-trainable params: 2,803,400\n","_________________________________________________________________\n","None\n"],"name":"stdout"}]},{"cell_type":"code","metadata":{"id":"HQcBi9Tef39o"},"source":[""],"execution_count":null,"outputs":[]},{"cell_type":"code","m
…
\n","\n","print(model2.summary())\n","model2.compile(loss = 'categorical_crossentropy', optimizer='adam',metrics = ['accuracy'])"],"execution_count":null,"outputs":[{"output_type":"stream","text":["Model: \"model_1\"\n","_________________________________________________________________\n","Layer (type)                 Output Shape              Param #   \n","=================================================================\n","input_1 (InputLayer)         [(None, 140)]             0         \n","_________________________________________________________________\n","embedding_1 (Embedding)      (None, 140, 200)          2803400   \n","_________________________________________________________________\n","bidirectional (Bidirectional (None, 140, 512)          935936    \n","_________________________________________________________________\n","bidirectional_1 (Bidirection (None, 300)               795600    \n","_________________________________________________________________\n","dense_1 (Dense)              (None, 128)               38528     \n","_________________________________________________________________\n","dropout (Dropout)            (None, 128)               0         \n","_________________________________________________________________\n","dense_2 (Dense)              (None, 64)                8256      \n","_________________________________________________________________\n","dense_3 (Dense)              (None, 2)                 130       \n","=================================================================\n","Total params: 4,581,850\n","Trainable params: 4,581,850\n","Non-trainable params: 0\n","_________________________________________________________________\n","None\n"],"name":"stdout"}]},{"cell_type":"code","metadata":{"id":"9K3JUFRDdUoM"},"source":["reduce_lr = ReduceLROnPlateau(monitor='val_accuracy', \n","         
…
